graph torch-jit-export (
  %input.1[FLOAT, 160x3x3x3]
) 


initializers (
  %1[FLOAT, 160x3x3x3]
  %2[FLOAT, 160]
  %3[FLOAT, 160x3x3x3]
  %4[FLOAT, 160]
  %5[FLOAT, 160x3x3x3]
  %6[FLOAT, 160]
  %7[FLOAT, 160x160x1x1]
  %8[FLOAT, 160]
  %9[FLOAT, 40x160x3x3]
  %10[FLOAT, 40]
  %11[FLOAT, 160x200x1x1]
  %12[FLOAT, 160]
  %13[FLOAT, 40x160x3x3]
  %14[FLOAT, 40]
  %15[FLOAT, 160x240x1x1]
  %16[FLOAT, 160]
  %17[FLOAT, 40x160x3x3]
  %18[FLOAT, 40]
  %19[FLOAT, 160x280x1x1]
  %20[FLOAT, 160]
  %21[FLOAT, 40x160x3x3]
  %22[FLOAT, 40]
  %23[FLOAT, 160x320x1x1]
  %24[FLOAT, 160]
  %25[FLOAT, 40x160x3x3]
  %26[FLOAT, 40]
  %27[FLOAT, 160x360x1x1]
  %28[FLOAT, 160]
  %29[FLOAT, 40x160x3x3]
  %30[FLOAT, 40]
  %31[FLOAT, 160x400x1x1]
  %32[FLOAT, 160]
  %33[FLOAT, 40x160x3x3]
  %34[FLOAT, 40]
  %35[FLOAT, 160x440x1x1]
  %36[FLOAT, 160]
  %37[FLOAT, 40x160x3x3]
  %38[FLOAT, 40]
  %39[FLOAT, 160x480x1x1]
  %40[FLOAT, 160x160x1x1]
  %41[FLOAT, 160]
  %42[FLOAT, 40x160x3x3]
  %43[FLOAT, 40]
  %44[FLOAT, 160x200x1x1]
  %45[FLOAT, 160]
  %46[FLOAT, 40x160x3x3]
  %47[FLOAT, 40]
  %48[FLOAT, 160x240x1x1]
  %49[FLOAT, 160]
  %50[FLOAT, 40x160x3x3]
  %51[FLOAT, 40]
  %52[FLOAT, 160x280x1x1]
  %53[FLOAT, 160]
  %54[FLOAT, 40x160x3x3]
  %55[FLOAT, 40]
  %56[FLOAT, 160x320x1x1]
  %57[FLOAT, 160]
  %58[FLOAT, 40x160x3x3]
  %59[FLOAT, 40]
  %60[FLOAT, 160x360x1x1]
  %61[FLOAT, 160]
  %62[FLOAT, 40x160x3x3]
  %63[FLOAT, 40]
  %64[FLOAT, 160x400x1x1]
  %65[FLOAT, 160]
  %66[FLOAT, 40x160x3x3]
  %67[FLOAT, 40]
  %68[FLOAT, 160x440x1x1]
  %69[FLOAT, 160]
  %70[FLOAT, 40x160x3x3]
  %71[FLOAT, 40]
  %72[FLOAT, 160x480x1x1]
  %73[FLOAT, 160x160x1x1]
  %74[FLOAT, 160]
  %75[FLOAT, 40x160x3x3]
  %76[FLOAT, 40]
  %77[FLOAT, 160x200x1x1]
  %78[FLOAT, 160]
  %79[FLOAT, 40x160x3x3]
  %80[FLOAT, 40]
  %81[FLOAT, 160x240x1x1]
  %82[FLOAT, 160]
  %83[FLOAT, 40x160x3x3]
  %84[FLOAT, 40]
  %85[FLOAT, 160x280x1x1]
  %86[FLOAT, 160]
  %87[FLOAT, 40x160x3x3]
  %88[FLOAT, 40]
  %89[FLOAT, 160x320x1x1]
  %90[FLOAT, 160]
  %91[FLOAT, 40x160x3x3]
  %92[FLOAT, 40]
  %93[FLOAT, 160x360x1x1]
  %94[FLOAT, 160]
  %95[FLOAT, 40x160x3x3]
  %96[FLOAT, 40]
  %97[FLOAT, 160x400x1x1]
  %98[FLOAT, 160]
  %99[FLOAT, 40x160x3x3]
  %100[FLOAT, 40]
  %101[FLOAT, 160x440x1x1]
  %102[FLOAT, 160]
  %103[FLOAT, 40x160x3x3]
  %104[FLOAT, 40]
  %105[FLOAT, 160x480x1x1]
  %106[FLOAT, 160x160x1x1]
  %107[FLOAT, 160]
  %108[FLOAT, 40x160x3x3]
  %109[FLOAT, 40]
  %110[FLOAT, 160x200x1x1]
  %111[FLOAT, 160]
  %112[FLOAT, 40x160x3x3]
  %113[FLOAT, 40]
  %114[FLOAT, 160x240x1x1]
  %115[FLOAT, 160]
  %116[FLOAT, 40x160x3x3]
  %117[FLOAT, 40]
  %118[FLOAT, 160x280x1x1]
  %119[FLOAT, 160]
  %120[FLOAT, 40x160x3x3]
  %121[FLOAT, 40]
  %122[FLOAT, 160x320x1x1]
  %123[FLOAT, 160]
  %124[FLOAT, 40x160x3x3]
  %125[FLOAT, 40]
  %126[FLOAT, 160x360x1x1]
  %127[FLOAT, 160]
  %128[FLOAT, 40x160x3x3]
  %129[FLOAT, 40]
  %130[FLOAT, 160x400x1x1]
  %131[FLOAT, 160]
  %132[FLOAT, 40x160x3x3]
  %133[FLOAT, 40]
  %134[FLOAT, 160x440x1x1]
  %135[FLOAT, 160]
  %136[FLOAT, 40x160x3x3]
  %137[FLOAT, 40]
  %138[FLOAT, 160x480x1x1]
  %139[FLOAT, 160x160x1x1]
  %140[FLOAT, 160]
  %141[FLOAT, 40x160x3x3]
  %142[FLOAT, 40]
  %143[FLOAT, 160x200x1x1]
  %144[FLOAT, 160]
  %145[FLOAT, 40x160x3x3]
  %146[FLOAT, 40]
  %147[FLOAT, 160x240x1x1]
  %148[FLOAT, 160]
  %149[FLOAT, 40x160x3x3]
  %150[FLOAT, 40]
  %151[FLOAT, 160x280x1x1]
  %152[FLOAT, 160]
  %153[FLOAT, 40x160x3x3]
  %154[FLOAT, 40]
  %155[FLOAT, 160x320x1x1]
  %156[FLOAT, 160]
  %157[FLOAT, 40x160x3x3]
  %158[FLOAT, 40]
  %159[FLOAT, 160x360x1x1]
  %160[FLOAT, 160]
  %161[FLOAT, 40x160x3x3]
  %162[FLOAT, 40]
  %163[FLOAT, 160x400x1x1]
  %164[FLOAT, 160]
  %165[FLOAT, 40x160x3x3]
  %166[FLOAT, 40]
  %167[FLOAT, 160x440x1x1]
  %168[FLOAT, 160]
  %169[FLOAT, 40x160x3x3]
  %170[FLOAT, 40]
  %171[FLOAT, 160x480x1x1]
  %172[FLOAT, 160x160x1x1]
  %173[FLOAT, 160]
  %174[FLOAT, 40x160x3x3]
  %175[FLOAT, 40]
  %176[FLOAT, 160x200x1x1]
  %177[FLOAT, 160]
  %178[FLOAT, 40x160x3x3]
  %179[FLOAT, 40]
  %180[FLOAT, 160x240x1x1]
  %181[FLOAT, 160]
  %182[FLOAT, 40x160x3x3]
  %183[FLOAT, 40]
  %184[FLOAT, 160x280x1x1]
  %185[FLOAT, 160]
  %186[FLOAT, 40x160x3x3]
  %187[FLOAT, 40]
  %188[FLOAT, 160x320x1x1]
  %189[FLOAT, 160]
  %190[FLOAT, 40x160x3x3]
  %191[FLOAT, 40]
  %192[FLOAT, 160x360x1x1]
  %193[FLOAT, 160]
  %194[FLOAT, 40x160x3x3]
  %195[FLOAT, 40]
  %196[FLOAT, 160x400x1x1]
  %197[FLOAT, 160]
  %198[FLOAT, 40x160x3x3]
  %199[FLOAT, 40]
  %200[FLOAT, 160x440x1x1]
  %201[FLOAT, 160]
  %202[FLOAT, 40x160x3x3]
  %203[FLOAT, 40]
  %204[FLOAT, 160x480x1x1]
  %205[FLOAT, 160x160x1x1]
  %206[FLOAT, 160]
  %207[FLOAT, 40x160x3x3]
  %208[FLOAT, 40]
  %209[FLOAT, 160x200x1x1]
  %210[FLOAT, 160]
  %211[FLOAT, 40x160x3x3]
  %212[FLOAT, 40]
  %213[FLOAT, 160x240x1x1]
  %214[FLOAT, 160]
  %215[FLOAT, 40x160x3x3]
  %216[FLOAT, 40]
  %217[FLOAT, 160x280x1x1]
  %218[FLOAT, 160]
  %219[FLOAT, 40x160x3x3]
  %220[FLOAT, 40]
  %221[FLOAT, 160x320x1x1]
  %222[FLOAT, 160]
  %223[FLOAT, 40x160x3x3]
  %224[FLOAT, 40]
  %225[FLOAT, 160x360x1x1]
  %226[FLOAT, 160]
  %227[FLOAT, 40x160x3x3]
  %228[FLOAT, 40]
  %229[FLOAT, 160x400x1x1]
  %230[FLOAT, 160]
  %231[FLOAT, 40x160x3x3]
  %232[FLOAT, 40]
  %233[FLOAT, 160x440x1x1]
  %234[FLOAT, 160]
  %235[FLOAT, 40x160x3x3]
  %236[FLOAT, 40]
  %237[FLOAT, 160x480x1x1]
  %238[FLOAT, 160x160x1x1]
  %239[FLOAT, 160]
  %240[FLOAT, 40x160x3x3]
  %241[FLOAT, 40]
  %242[FLOAT, 160x200x1x1]
  %243[FLOAT, 160]
  %244[FLOAT, 40x160x3x3]
  %245[FLOAT, 40]
  %246[FLOAT, 160x240x1x1]
  %247[FLOAT, 160]
  %248[FLOAT, 40x160x3x3]
  %249[FLOAT, 40]
  %250[FLOAT, 160x280x1x1]
  %251[FLOAT, 160]
  %252[FLOAT, 40x160x3x3]
  %253[FLOAT, 40]
  %254[FLOAT, 160x320x1x1]
  %255[FLOAT, 160]
  %256[FLOAT, 40x160x3x3]
  %257[FLOAT, 40]
  %258[FLOAT, 160x360x1x1]
  %259[FLOAT, 160]
  %260[FLOAT, 40x160x3x3]
  %261[FLOAT, 40]
  %262[FLOAT, 160x400x1x1]
  %263[FLOAT, 160]
  %264[FLOAT, 40x160x3x3]
  %265[FLOAT, 40]
  %266[FLOAT, 160x440x1x1]
  %267[FLOAT, 160]
  %268[FLOAT, 40x160x3x3]
  %269[FLOAT, 40]
  %270[FLOAT, 160x480x1x1]
  %271[FLOAT, 160x160x1x1]
  %272[FLOAT, 160]
  %273[FLOAT, 40x160x3x3]
  %274[FLOAT, 40]
  %275[FLOAT, 160x200x1x1]
  %276[FLOAT, 160]
  %277[FLOAT, 40x160x3x3]
  %278[FLOAT, 40]
  %279[FLOAT, 160x240x1x1]
  %280[FLOAT, 160]
  %281[FLOAT, 40x160x3x3]
  %282[FLOAT, 40]
  %283[FLOAT, 160x280x1x1]
  %284[FLOAT, 160]
  %285[FLOAT, 40x160x3x3]
  %286[FLOAT, 40]
  %287[FLOAT, 160x320x1x1]
  %288[FLOAT, 160]
  %289[FLOAT, 40x160x3x3]
  %290[FLOAT, 40]
  %291[FLOAT, 160x360x1x1]
  %292[FLOAT, 160]
  %293[FLOAT, 40x160x3x3]
  %294[FLOAT, 40]
  %295[FLOAT, 160x400x1x1]
  %296[FLOAT, 160]
  %297[FLOAT, 40x160x3x3]
  %298[FLOAT, 40]
  %299[FLOAT, 160x440x1x1]
  %300[FLOAT, 160]
  %301[FLOAT, 40x160x3x3]
  %302[FLOAT, 40]
  %303[FLOAT, 160x480x1x1]
  %304[FLOAT, 160x160x3x3]
  %305[FLOAT, 160]
  %306[FLOAT, 640x160x3x3]
  %307[FLOAT, 640]
  %308[FLOAT, 3x160x3x3]
  %309[FLOAT, 3]
  %310[FLOAT, 160x160x1x1]
  %311[FLOAT, 160x160x1x1]
  %312[FLOAT, 160]
  %313[FLOAT, 40x160x3x3]
  %314[FLOAT, 40]
  %315[FLOAT, 160x200x1x1]
  %316[FLOAT, 160]
  %317[FLOAT, 40x160x3x3]
  %318[FLOAT, 40]
  %319[FLOAT, 160x240x1x1]
  %320[FLOAT, 160]
  %321[FLOAT, 40x160x3x3]
  %322[FLOAT, 40]
  %323[FLOAT, 160x280x1x1]
  %324[FLOAT, 160]
  %325[FLOAT, 40x160x3x3]
  %326[FLOAT, 40]
  %327[FLOAT, 160x320x1x1]
  %328[FLOAT, 160]
  %329[FLOAT, 40x160x3x3]
  %330[FLOAT, 40]
  %331[FLOAT, 160x360x1x1]
  %332[FLOAT, 160]
  %333[FLOAT, 40x160x3x3]
  %334[FLOAT, 40]
  %335[FLOAT, 160x400x1x1]
  %336[FLOAT, 160]
  %337[FLOAT, 40x160x3x3]
  %338[FLOAT, 40]
  %339[FLOAT, 160x440x1x1]
  %340[FLOAT, 160]
  %341[FLOAT, 40x160x3x3]
  %342[FLOAT, 40]
  %343[FLOAT, 160x480x1x1]
  %344[FLOAT, 160x160x1x1]
  %345[FLOAT, 160]
  %346[FLOAT, 40x160x3x3]
  %347[FLOAT, 40]
  %348[FLOAT, 160x200x1x1]
  %349[FLOAT, 160]
  %350[FLOAT, 40x160x3x3]
  %351[FLOAT, 40]
  %352[FLOAT, 160x240x1x1]
  %353[FLOAT, 160]
  %354[FLOAT, 40x160x3x3]
  %355[FLOAT, 40]
  %356[FLOAT, 160x280x1x1]
  %357[FLOAT, 160]
  %358[FLOAT, 40x160x3x3]
  %359[FLOAT, 40]
  %360[FLOAT, 160x320x1x1]
  %361[FLOAT, 160]
  %362[FLOAT, 40x160x3x3]
  %363[FLOAT, 40]
  %364[FLOAT, 160x360x1x1]
  %365[FLOAT, 160]
  %366[FLOAT, 40x160x3x3]
  %367[FLOAT, 40]
  %368[FLOAT, 160x400x1x1]
  %369[FLOAT, 160]
  %370[FLOAT, 40x160x3x3]
  %371[FLOAT, 40]
  %372[FLOAT, 160x440x1x1]
  %373[FLOAT, 160]
  %374[FLOAT, 40x160x3x3]
  %375[FLOAT, 40]
  %376[FLOAT, 160x480x1x1]
  %377[FLOAT, 160x160x1x1]
  %378[FLOAT, 160]
  %379[FLOAT, 40x160x3x3]
  %380[FLOAT, 40]
  %381[FLOAT, 160x200x1x1]
  %382[FLOAT, 160]
  %383[FLOAT, 40x160x3x3]
  %384[FLOAT, 40]
  %385[FLOAT, 160x240x1x1]
  %386[FLOAT, 160]
  %387[FLOAT, 40x160x3x3]
  %388[FLOAT, 40]
  %389[FLOAT, 160x280x1x1]
  %390[FLOAT, 160]
  %391[FLOAT, 40x160x3x3]
  %392[FLOAT, 40]
  %393[FLOAT, 160x320x1x1]
  %394[FLOAT, 160]
  %395[FLOAT, 40x160x3x3]
  %396[FLOAT, 40]
  %397[FLOAT, 160x360x1x1]
  %398[FLOAT, 160]
  %399[FLOAT, 40x160x3x3]
  %400[FLOAT, 40]
  %401[FLOAT, 160x400x1x1]
  %402[FLOAT, 160]
  %403[FLOAT, 40x160x3x3]
  %404[FLOAT, 40]
  %405[FLOAT, 160x440x1x1]
  %406[FLOAT, 160]
  %407[FLOAT, 40x160x3x3]
  %408[FLOAT, 40]
  %409[FLOAT, 160x480x1x1]
  %410[FLOAT, 160x160x3x3]
  %411[FLOAT, 160]
  %412[FLOAT, 640x160x3x3]
  %413[FLOAT, 640]
  %414[FLOAT, 3x160x3x3]
  %415[FLOAT, 3]
  %416[FLOAT, 160x160x1x1]
  %417[FLOAT, 160x160x1x1]
  %418[FLOAT, 160]
  %419[FLOAT, 40x160x3x3]
  %420[FLOAT, 40]
  %421[FLOAT, 160x200x1x1]
  %422[FLOAT, 160]
  %423[FLOAT, 40x160x3x3]
  %424[FLOAT, 40]
  %425[FLOAT, 160x240x1x1]
  %426[FLOAT, 160]
  %427[FLOAT, 40x160x3x3]
  %428[FLOAT, 40]
  %429[FLOAT, 160x280x1x1]
  %430[FLOAT, 160]
  %431[FLOAT, 40x160x3x3]
  %432[FLOAT, 40]
  %433[FLOAT, 160x320x1x1]
  %434[FLOAT, 160]
  %435[FLOAT, 40x160x3x3]
  %436[FLOAT, 40]
  %437[FLOAT, 160x360x1x1]
  %438[FLOAT, 160]
  %439[FLOAT, 40x160x3x3]
  %440[FLOAT, 40]
  %441[FLOAT, 160x400x1x1]
  %442[FLOAT, 160]
  %443[FLOAT, 40x160x3x3]
  %444[FLOAT, 40]
  %445[FLOAT, 160x440x1x1]
  %446[FLOAT, 160]
  %447[FLOAT, 40x160x3x3]
  %448[FLOAT, 40]
  %449[FLOAT, 160x480x1x1]
  %450[FLOAT, 160x160x3x3]
  %451[FLOAT, 160]
  %452[FLOAT, 640x160x3x3]
  %453[FLOAT, 640]
  %454[FLOAT, 3x160x3x3]
  %455[FLOAT, 3]) 
{
  %456 = Pad[mode = 'reflect', pads = [0, 0, 1, 1, 0, 0, 1, 1]](%input.1)
  %457 = Conv[dilations = [1, 1], group = 1, kernel_shape = [3, 3], pads = [0, 0, 0, 0], strides = [1, 1]](%456, %5, %6)
  %458 = Conv[dilations = [1, 1], group = 1, kernel_shape = [1, 1], pads = [0, 0, 0, 0], strides = [1, 1]](%457, %7, %8)
  %459 = Relu(%458)
  %460 = Pad[mode = 'reflect', pads = [0, 0, 1, 1, 0, 0, 1, 1]](%459)
  %461 = Conv[dilations = [1, 1], group = 1, kernel_shape = [3, 3], pads = [0, 0, 0, 0], strides = [1, 1]](%460, %9, %10)
  %462 = Concat[axis = 1](%457, %461)
  %463 = Conv[dilations = [1, 1], group = 1, kernel_shape = [1, 1], pads = [0, 0, 0, 0], strides = [1, 1]](%462, %11, %12)
  %464 = Relu(%463)
  %465 = Pad[mode = 'reflect', pads = [0, 0, 1, 1, 0, 0, 1, 1]](%464)
  %466 = Conv[dilations = [1, 1], group = 1, kernel_shape = [3, 3], pads = [0, 0, 0, 0], strides = [1, 1]](%465, %13, %14)
  %467 = Concat[axis = 1](%462, %466)
  %468 = Conv[dilations = [1, 1], group = 1, kernel_shape = [1, 1], pads = [0, 0, 0, 0], strides = [1, 1]](%467, %15, %16)
  %469 = Relu(%468)
  %470 = Pad[mode = 'reflect', pads = [0, 0, 1, 1, 0, 0, 1, 1]](%469)
  %471 = Conv[dilations = [1, 1], group = 1, kernel_shape = [3, 3], pads = [0, 0, 0, 0], strides = [1, 1]](%470, %17, %18)
  %472 = Concat[axis = 1](%467, %471)
  %473 = Conv[dilations = [1, 1], group = 1, kernel_shape = [1, 1], pads = [0, 0, 0, 0], strides = [1, 1]](%472, %19, %20)
  %474 = Relu(%473)
  %475 = Pad[mode = 'reflect', pads = [0, 0, 1, 1, 0, 0, 1, 1]](%474)
  %476 = Conv[dilations = [1, 1], group = 1, kernel_shape = [3, 3], pads = [0, 0, 0, 0], strides = [1, 1]](%475, %21, %22)
  %477 = Concat[axis = 1](%472, %476)
  %478 = Conv[dilations = [1, 1], group = 1, kernel_shape = [1, 1], pads = [0, 0, 0, 0], strides = [1, 1]](%477, %23, %24)
  %479 = Relu(%478)
  %480 = Pad[mode = 'reflect', pads = [0, 0, 1, 1, 0, 0, 1, 1]](%479)
  %481 = Conv[dilations = [1, 1], group = 1, kernel_shape = [3, 3], pads = [0, 0, 0, 0], strides = [1, 1]](%480, %25, %26)
  %482 = Concat[axis = 1](%477, %481)
  %483 = Conv[dilations = [1, 1], group = 1, kernel_shape = [1, 1], pads = [0, 0, 0, 0], strides = [1, 1]](%482, %27, %28)
  %484 = Relu(%483)
  %485 = Pad[mode = 'reflect', pads = [0, 0, 1, 1, 0, 0, 1, 1]](%484)
  %486 = Conv[dilations = [1, 1], group = 1, kernel_shape = [3, 3], pads = [0, 0, 0, 0], strides = [1, 1]](%485, %29, %30)
  %487 = Concat[axis = 1](%482, %486)
  %488 = Conv[dilations = [1, 1], group = 1, kernel_shape = [1, 1], pads = [0, 0, 0, 0], strides = [1, 1]](%487, %31, %32)
  %489 = Relu(%488)
  %490 = Pad[mode = 'reflect', pads = [0, 0, 1, 1, 0, 0, 1, 1]](%489)
  %491 = Conv[dilations = [1, 1], group = 1, kernel_shape = [3, 3], pads = [0, 0, 0, 0], strides = [1, 1]](%490, %33, %34)
  %492 = Concat[axis = 1](%487, %491)
  %493 = Conv[dilations = [1, 1], group = 1, kernel_shape = [1, 1], pads = [0, 0, 0, 0], strides = [1, 1]](%492, %35, %36)
  %494 = Relu(%493)
  %495 = Pad[mode = 'reflect', pads = [0, 0, 1, 1, 0, 0, 1, 1]](%494)
  %496 = Conv[dilations = [1, 1], group = 1, kernel_shape = [3, 3], pads = [0, 0, 0, 0], strides = [1, 1]](%495, %37, %38)
  %497 = Concat[axis = 1](%492, %496)
  %498 = Conv[dilations = [1, 1], group = 1, kernel_shape = [1, 1], pads = [0, 0, 0, 0], strides = [1, 1]](%497, %39)
  %499 = Constant[value = <Scalar Tensor []>]()
  %500 = Mul(%498, %499)
  %501 = Add(%500, %457)
  %502 = Conv[dilations = [1, 1], group = 1, kernel_shape = [1, 1], pads = [0, 0, 0, 0], strides = [1, 1]](%501, %40, %41)
  %503 = Relu(%502)
  %504 = Pad[mode = 'reflect', pads = [0, 0, 1, 1, 0, 0, 1, 1]](%503)
  %505 = Conv[dilations = [1, 1], group = 1, kernel_shape = [3, 3], pads = [0, 0, 0, 0], strides = [1, 1]](%504, %42, %43)
  %506 = Concat[axis = 1](%501, %505)
  %507 = Conv[dilations = [1, 1], group = 1, kernel_shape = [1, 1], pads = [0, 0, 0, 0], strides = [1, 1]](%506, %44, %45)
  %508 = Relu(%507)
  %509 = Pad[mode = 'reflect', pads = [0, 0, 1, 1, 0, 0, 1, 1]](%508)
  %510 = Conv[dilations = [1, 1], group = 1, kernel_shape = [3, 3], pads = [0, 0, 0, 0], strides = [1, 1]](%509, %46, %47)
  %511 = Concat[axis = 1](%506, %510)
  %512 = Conv[dilations = [1, 1], group = 1, kernel_shape = [1, 1], pads = [0, 0, 0, 0], strides = [1, 1]](%511, %48, %49)
  %513 = Relu(%512)
  %514 = Pad[mode = 'reflect', pads = [0, 0, 1, 1, 0, 0, 1, 1]](%513)
  %515 = Conv[dilations = [1, 1], group = 1, kernel_shape = [3, 3], pads = [0, 0, 0, 0], strides = [1, 1]](%514, %50, %51)
  %516 = Concat[axis = 1](%511, %515)
  %517 = Conv[dilations = [1, 1], group = 1, kernel_shape = [1, 1], pads = [0, 0, 0, 0], strides = [1, 1]](%516, %52, %53)
  %518 = Relu(%517)
  %519 = Pad[mode = 'reflect', pads = [0, 0, 1, 1, 0, 0, 1, 1]](%518)
  %520 = Conv[dilations = [1, 1], group = 1, kernel_shape = [3, 3], pads = [0, 0, 0, 0], strides = [1, 1]](%519, %54, %55)
  %521 = Concat[axis = 1](%516, %520)
  %522 = Conv[dilations = [1, 1], group = 1, kernel_shape = [1, 1], pads = [0, 0, 0, 0], strides = [1, 1]](%521, %56, %57)
  %523 = Relu(%522)
  %524 = Pad[mode = 'reflect', pads = [0, 0, 1, 1, 0, 0, 1, 1]](%523)
  %525 = Conv[dilations = [1, 1], group = 1, kernel_shape = [3, 3], pads = [0, 0, 0, 0], strides = [1, 1]](%524, %58, %59)
  %526 = Concat[axis = 1](%521, %525)
  %527 = Conv[dilations = [1, 1], group = 1, kernel_shape = [1, 1], pads = [0, 0, 0, 0], strides = [1, 1]](%526, %60, %61)
  %528 = Relu(%527)
  %529 = Pad[mode = 'reflect', pads = [0, 0, 1, 1, 0, 0, 1, 1]](%528)
  %530 = Conv[dilations = [1, 1], group = 1, kernel_shape = [3, 3], pads = [0, 0, 0, 0], strides = [1, 1]](%529, %62, %63)
  %531 = Concat[axis = 1](%526, %530)
  %532 = Conv[dilations = [1, 1], group = 1, kernel_shape = [1, 1], pads = [0, 0, 0, 0], strides = [1, 1]](%531, %64, %65)
  %533 = Relu(%532)
  %534 = Pad[mode = 'reflect', pads = [0, 0, 1, 1, 0, 0, 1, 1]](%533)
  %535 = Conv[dilations = [1, 1], group = 1, kernel_shape = [3, 3], pads = [0, 0, 0, 0], strides = [1, 1]](%534, %66, %67)
  %536 = Concat[axis = 1](%531, %535)
  %537 = Conv[dilations = [1, 1], group = 1, kernel_shape = [1, 1], pads = [0, 0, 0, 0], strides = [1, 1]](%536, %68, %69)
  %538 = Relu(%537)
  %539 = Pad[mode = 'reflect', pads = [0, 0, 1, 1, 0, 0, 1, 1]](%538)
  %540 = Conv[dilations = [1, 1], group = 1, kernel_shape = [3, 3], pads = [0, 0, 0, 0], strides = [1, 1]](%539, %70, %71)
  %541 = Concat[axis = 1](%536, %540)
  %542 = Conv[dilations = [1, 1], group = 1, kernel_shape = [1, 1], pads = [0, 0, 0, 0], strides = [1, 1]](%541, %72)
  %543 = Constant[value = <Scalar Tensor []>]()
  %544 = Mul(%542, %543)
  %545 = Add(%544, %501)
  %546 = Conv[dilations = [1, 1], group = 1, kernel_shape = [1, 1], pads = [0, 0, 0, 0], strides = [1, 1]](%545, %73, %74)
  %547 = Relu(%546)
  %548 = Pad[mode = 'reflect', pads = [0, 0, 1, 1, 0, 0, 1, 1]](%547)
  %549 = Conv[dilations = [1, 1], group = 1, kernel_shape = [3, 3], pads = [0, 0, 0, 0], strides = [1, 1]](%548, %75, %76)
  %550 = Concat[axis = 1](%545, %549)
  %551 = Conv[dilations = [1, 1], group = 1, kernel_shape = [1, 1], pads = [0, 0, 0, 0], strides = [1, 1]](%550, %77, %78)
  %552 = Relu(%551)
  %553 = Pad[mode = 'reflect', pads = [0, 0, 1, 1, 0, 0, 1, 1]](%552)
  %554 = Conv[dilations = [1, 1], group = 1, kernel_shape = [3, 3], pads = [0, 0, 0, 0], strides = [1, 1]](%553, %79, %80)
  %555 = Concat[axis = 1](%550, %554)
  %556 = Conv[dilations = [1, 1], group = 1, kernel_shape = [1, 1], pads = [0, 0, 0, 0], strides = [1, 1]](%555, %81, %82)
  %557 = Relu(%556)
  %558 = Pad[mode = 'reflect', pads = [0, 0, 1, 1, 0, 0, 1, 1]](%557)
  %559 = Conv[dilations = [1, 1], group = 1, kernel_shape = [3, 3], pads = [0, 0, 0, 0], strides = [1, 1]](%558, %83, %84)
  %560 = Concat[axis = 1](%555, %559)
  %561 = Conv[dilations = [1, 1], group = 1, kernel_shape = [1, 1], pads = [0, 0, 0, 0], strides = [1, 1]](%560, %85, %86)
  %562 = Relu(%561)
  %563 = Pad[mode = 'reflect', pads = [0, 0, 1, 1, 0, 0, 1, 1]](%562)
  %564 = Conv[dilations = [1, 1], group = 1, kernel_shape = [3, 3], pads = [0, 0, 0, 0], strides = [1, 1]](%563, %87, %88)
  %565 = Concat[axis = 1](%560, %564)
  %566 = Conv[dilations = [1, 1], group = 1, kernel_shape = [1, 1], pads = [0, 0, 0, 0], strides = [1, 1]](%565, %89, %90)
  %567 = Relu(%566)
  %568 = Pad[mode = 'reflect', pads = [0, 0, 1, 1, 0, 0, 1, 1]](%567)
  %569 = Conv[dilations = [1, 1], group = 1, kernel_shape = [3, 3], pads = [0, 0, 0, 0], strides = [1, 1]](%568, %91, %92)
  %570 = Concat[axis = 1](%565, %569)
  %571 = Conv[dilations = [1, 1], group = 1, kernel_shape = [1, 1], pads = [0, 0, 0, 0], strides = [1, 1]](%570, %93, %94)
  %572 = Relu(%571)
  %573 = Pad[mode = 'reflect', pads = [0, 0, 1, 1, 0, 0, 1, 1]](%572)
  %574 = Conv[dilations = [1, 1], group = 1, kernel_shape = [3, 3], pads = [0, 0, 0, 0], strides = [1, 1]](%573, %95, %96)
  %575 = Concat[axis = 1](%570, %574)
  %576 = Conv[dilations = [1, 1], group = 1, kernel_shape = [1, 1], pads = [0, 0, 0, 0], strides = [1, 1]](%575, %97, %98)
  %577 = Relu(%576)
  %578 = Pad[mode = 'reflect', pads = [0, 0, 1, 1, 0, 0, 1, 1]](%577)
  %579 = Conv[dilations = [1, 1], group = 1, kernel_shape = [3, 3], pads = [0, 0, 0, 0], strides = [1, 1]](%578, %99, %100)
  %580 = Concat[axis = 1](%575, %579)
  %581 = Conv[dilations = [1, 1], group = 1, kernel_shape = [1, 1], pads = [0, 0, 0, 0], strides = [1, 1]](%580, %101, %102)
  %582 = Relu(%581)
  %583 = Pad[mode = 'reflect', pads = [0, 0, 1, 1, 0, 0, 1, 1]](%582)
  %584 = Conv[dilations = [1, 1], group = 1, kernel_shape = [3, 3], pads = [0, 0, 0, 0], strides = [1, 1]](%583, %103, %104)
  %585 = Concat[axis = 1](%580, %584)
  %586 = Conv[dilations = [1, 1], group = 1, kernel_shape = [1, 1], pads = [0, 0, 0, 0], strides = [1, 1]](%585, %105)
  %587 = Constant[value = <Scalar Tensor []>]()
  %588 = Mul(%586, %587)
  %589 = Add(%588, %545)
  %590 = Conv[dilations = [1, 1], group = 1, kernel_shape = [1, 1], pads = [0, 0, 0, 0], strides = [1, 1]](%589, %106, %107)
  %591 = Relu(%590)
  %592 = Pad[mode = 'reflect', pads = [0, 0, 1, 1, 0, 0, 1, 1]](%591)
  %593 = Conv[dilations = [1, 1], group = 1, kernel_shape = [3, 3], pads = [0, 0, 0, 0], strides = [1, 1]](%592, %108, %109)
  %594 = Concat[axis = 1](%589, %593)
  %595 = Conv[dilations = [1, 1], group = 1, kernel_shape = [1, 1], pads = [0, 0, 0, 0], strides = [1, 1]](%594, %110, %111)
  %596 = Relu(%595)
  %597 = Pad[mode = 'reflect', pads = [0, 0, 1, 1, 0, 0, 1, 1]](%596)
  %598 = Conv[dilations = [1, 1], group = 1, kernel_shape = [3, 3], pads = [0, 0, 0, 0], strides = [1, 1]](%597, %112, %113)
  %599 = Concat[axis = 1](%594, %598)
  %600 = Conv[dilations = [1, 1], group = 1, kernel_shape = [1, 1], pads = [0, 0, 0, 0], strides = [1, 1]](%599, %114, %115)
  %601 = Relu(%600)
  %602 = Pad[mode = 'reflect', pads = [0, 0, 1, 1, 0, 0, 1, 1]](%601)
  %603 = Conv[dilations = [1, 1], group = 1, kernel_shape = [3, 3], pads = [0, 0, 0, 0], strides = [1, 1]](%602, %116, %117)
  %604 = Concat[axis = 1](%599, %603)
  %605 = Conv[dilations = [1, 1], group = 1, kernel_shape = [1, 1], pads = [0, 0, 0, 0], strides = [1, 1]](%604, %118, %119)
  %606 = Relu(%605)
  %607 = Pad[mode = 'reflect', pads = [0, 0, 1, 1, 0, 0, 1, 1]](%606)
  %608 = Conv[dilations = [1, 1], group = 1, kernel_shape = [3, 3], pads = [0, 0, 0, 0], strides = [1, 1]](%607, %120, %121)
  %609 = Concat[axis = 1](%604, %608)
  %610 = Conv[dilations = [1, 1], group = 1, kernel_shape = [1, 1], pads = [0, 0, 0, 0], strides = [1, 1]](%609, %122, %123)
  %611 = Relu(%610)
  %612 = Pad[mode = 'reflect', pads = [0, 0, 1, 1, 0, 0, 1, 1]](%611)
  %613 = Conv[dilations = [1, 1], group = 1, kernel_shape = [3, 3], pads = [0, 0, 0, 0], strides = [1, 1]](%612, %124, %125)
  %614 = Concat[axis = 1](%609, %613)
  %615 = Conv[dilations = [1, 1], group = 1, kernel_shape = [1, 1], pads = [0, 0, 0, 0], strides = [1, 1]](%614, %126, %127)
  %616 = Relu(%615)
  %617 = Pad[mode = 'reflect', pads = [0, 0, 1, 1, 0, 0, 1, 1]](%616)
  %618 = Conv[dilations = [1, 1], group = 1, kernel_shape = [3, 3], pads = [0, 0, 0, 0], strides = [1, 1]](%617, %128, %129)
  %619 = Concat[axis = 1](%614, %618)
  %620 = Conv[dilations = [1, 1], group = 1, kernel_shape = [1, 1], pads = [0, 0, 0, 0], strides = [1, 1]](%619, %130, %131)
  %621 = Relu(%620)
  %622 = Pad[mode = 'reflect', pads = [0, 0, 1, 1, 0, 0, 1, 1]](%621)
  %623 = Conv[dilations = [1, 1], group = 1, kernel_shape = [3, 3], pads = [0, 0, 0, 0], strides = [1, 1]](%622, %132, %133)
  %624 = Concat[axis = 1](%619, %623)
  %625 = Conv[dilations = [1, 1], group = 1, kernel_shape = [1, 1], pads = [0, 0, 0, 0], strides = [1, 1]](%624, %134, %135)
  %626 = Relu(%625)
  %627 = Pad[mode = 'reflect', pads = [0, 0, 1, 1, 0, 0, 1, 1]](%626)
  %628 = Conv[dilations = [1, 1], group = 1, kernel_shape = [3, 3], pads = [0, 0, 0, 0], strides = [1, 1]](%627, %136, %137)
  %629 = Concat[axis = 1](%624, %628)
  %630 = Conv[dilations = [1, 1], group = 1, kernel_shape = [1, 1], pads = [0, 0, 0, 0], strides = [1, 1]](%629, %138)
  %631 = Constant[value = <Scalar Tensor []>]()
  %632 = Mul(%630, %631)
  %633 = Add(%632, %589)
  %634 = Conv[dilations = [1, 1], group = 1, kernel_shape = [1, 1], pads = [0, 0, 0, 0], strides = [1, 1]](%633, %139, %140)
  %635 = Relu(%634)
  %636 = Pad[mode = 'reflect', pads = [0, 0, 1, 1, 0, 0, 1, 1]](%635)
  %637 = Conv[dilations = [1, 1], group = 1, kernel_shape = [3, 3], pads = [0, 0, 0, 0], strides = [1, 1]](%636, %141, %142)
  %638 = Concat[axis = 1](%633, %637)
  %639 = Conv[dilations = [1, 1], group = 1, kernel_shape = [1, 1], pads = [0, 0, 0, 0], strides = [1, 1]](%638, %143, %144)
  %640 = Relu(%639)
  %641 = Pad[mode = 'reflect', pads = [0, 0, 1, 1, 0, 0, 1, 1]](%640)
  %642 = Conv[dilations = [1, 1], group = 1, kernel_shape = [3, 3], pads = [0, 0, 0, 0], strides = [1, 1]](%641, %145, %146)
  %643 = Concat[axis = 1](%638, %642)
  %644 = Conv[dilations = [1, 1], group = 1, kernel_shape = [1, 1], pads = [0, 0, 0, 0], strides = [1, 1]](%643, %147, %148)
  %645 = Relu(%644)
  %646 = Pad[mode = 'reflect', pads = [0, 0, 1, 1, 0, 0, 1, 1]](%645)
  %647 = Conv[dilations = [1, 1], group = 1, kernel_shape = [3, 3], pads = [0, 0, 0, 0], strides = [1, 1]](%646, %149, %150)
  %648 = Concat[axis = 1](%643, %647)
  %649 = Conv[dilations = [1, 1], group = 1, kernel_shape = [1, 1], pads = [0, 0, 0, 0], strides = [1, 1]](%648, %151, %152)
  %650 = Relu(%649)
  %651 = Pad[mode = 'reflect', pads = [0, 0, 1, 1, 0, 0, 1, 1]](%650)
  %652 = Conv[dilations = [1, 1], group = 1, kernel_shape = [3, 3], pads = [0, 0, 0, 0], strides = [1, 1]](%651, %153, %154)
  %653 = Concat[axis = 1](%648, %652)
  %654 = Conv[dilations = [1, 1], group = 1, kernel_shape = [1, 1], pads = [0, 0, 0, 0], strides = [1, 1]](%653, %155, %156)
  %655 = Relu(%654)
  %656 = Pad[mode = 'reflect', pads = [0, 0, 1, 1, 0, 0, 1, 1]](%655)
  %657 = Conv[dilations = [1, 1], group = 1, kernel_shape = [3, 3], pads = [0, 0, 0, 0], strides = [1, 1]](%656, %157, %158)
  %658 = Concat[axis = 1](%653, %657)
  %659 = Conv[dilations = [1, 1], group = 1, kernel_shape = [1, 1], pads = [0, 0, 0, 0], strides = [1, 1]](%658, %159, %160)
  %660 = Relu(%659)
  %661 = Pad[mode = 'reflect', pads = [0, 0, 1, 1, 0, 0, 1, 1]](%660)
  %662 = Conv[dilations = [1, 1], group = 1, kernel_shape = [3, 3], pads = [0, 0, 0, 0], strides = [1, 1]](%661, %161, %162)
  %663 = Concat[axis = 1](%658, %662)
  %664 = Conv[dilations = [1, 1], group = 1, kernel_shape = [1, 1], pads = [0, 0, 0, 0], strides = [1, 1]](%663, %163, %164)
  %665 = Relu(%664)
  %666 = Pad[mode = 'reflect', pads = [0, 0, 1, 1, 0, 0, 1, 1]](%665)
  %667 = Conv[dilations = [1, 1], group = 1, kernel_shape = [3, 3], pads = [0, 0, 0, 0], strides = [1, 1]](%666, %165, %166)
  %668 = Concat[axis = 1](%663, %667)
  %669 = Conv[dilations = [1, 1], group = 1, kernel_shape = [1, 1], pads = [0, 0, 0, 0], strides = [1, 1]](%668, %167, %168)
  %670 = Relu(%669)
  %671 = Pad[mode = 'reflect', pads = [0, 0, 1, 1, 0, 0, 1, 1]](%670)
  %672 = Conv[dilations = [1, 1], group = 1, kernel_shape = [3, 3], pads = [0, 0, 0, 0], strides = [1, 1]](%671, %169, %170)
  %673 = Concat[axis = 1](%668, %672)
  %674 = Conv[dilations = [1, 1], group = 1, kernel_shape = [1, 1], pads = [0, 0, 0, 0], strides = [1, 1]](%673, %171)
  %675 = Constant[value = <Scalar Tensor []>]()
  %676 = Mul(%674, %675)
  %677 = Add(%676, %633)
  %678 = Conv[dilations = [1, 1], group = 1, kernel_shape = [1, 1], pads = [0, 0, 0, 0], strides = [1, 1]](%677, %172, %173)
  %679 = Relu(%678)
  %680 = Pad[mode = 'reflect', pads = [0, 0, 1, 1, 0, 0, 1, 1]](%679)
  %681 = Conv[dilations = [1, 1], group = 1, kernel_shape = [3, 3], pads = [0, 0, 0, 0], strides = [1, 1]](%680, %174, %175)
  %682 = Concat[axis = 1](%677, %681)
  %683 = Conv[dilations = [1, 1], group = 1, kernel_shape = [1, 1], pads = [0, 0, 0, 0], strides = [1, 1]](%682, %176, %177)
  %684 = Relu(%683)
  %685 = Pad[mode = 'reflect', pads = [0, 0, 1, 1, 0, 0, 1, 1]](%684)
  %686 = Conv[dilations = [1, 1], group = 1, kernel_shape = [3, 3], pads = [0, 0, 0, 0], strides = [1, 1]](%685, %178, %179)
  %687 = Concat[axis = 1](%682, %686)
  %688 = Conv[dilations = [1, 1], group = 1, kernel_shape = [1, 1], pads = [0, 0, 0, 0], strides = [1, 1]](%687, %180, %181)
  %689 = Relu(%688)
  %690 = Pad[mode = 'reflect', pads = [0, 0, 1, 1, 0, 0, 1, 1]](%689)
  %691 = Conv[dilations = [1, 1], group = 1, kernel_shape = [3, 3], pads = [0, 0, 0, 0], strides = [1, 1]](%690, %182, %183)
  %692 = Concat[axis = 1](%687, %691)
  %693 = Conv[dilations = [1, 1], group = 1, kernel_shape = [1, 1], pads = [0, 0, 0, 0], strides = [1, 1]](%692, %184, %185)
  %694 = Relu(%693)
  %695 = Pad[mode = 'reflect', pads = [0, 0, 1, 1, 0, 0, 1, 1]](%694)
  %696 = Conv[dilations = [1, 1], group = 1, kernel_shape = [3, 3], pads = [0, 0, 0, 0], strides = [1, 1]](%695, %186, %187)
  %697 = Concat[axis = 1](%692, %696)
  %698 = Conv[dilations = [1, 1], group = 1, kernel_shape = [1, 1], pads = [0, 0, 0, 0], strides = [1, 1]](%697, %188, %189)
  %699 = Relu(%698)
  %700 = Pad[mode = 'reflect', pads = [0, 0, 1, 1, 0, 0, 1, 1]](%699)
  %701 = Conv[dilations = [1, 1], group = 1, kernel_shape = [3, 3], pads = [0, 0, 0, 0], strides = [1, 1]](%700, %190, %191)
  %702 = Concat[axis = 1](%697, %701)
  %703 = Conv[dilations = [1, 1], group = 1, kernel_shape = [1, 1], pads = [0, 0, 0, 0], strides = [1, 1]](%702, %192, %193)
  %704 = Relu(%703)
  %705 = Pad[mode = 'reflect', pads = [0, 0, 1, 1, 0, 0, 1, 1]](%704)
  %706 = Conv[dilations = [1, 1], group = 1, kernel_shape = [3, 3], pads = [0, 0, 0, 0], strides = [1, 1]](%705, %194, %195)
  %707 = Concat[axis = 1](%702, %706)
  %708 = Conv[dilations = [1, 1], group = 1, kernel_shape = [1, 1], pads = [0, 0, 0, 0], strides = [1, 1]](%707, %196, %197)
  %709 = Relu(%708)
  %710 = Pad[mode = 'reflect', pads = [0, 0, 1, 1, 0, 0, 1, 1]](%709)
  %711 = Conv[dilations = [1, 1], group = 1, kernel_shape = [3, 3], pads = [0, 0, 0, 0], strides = [1, 1]](%710, %198, %199)
  %712 = Concat[axis = 1](%707, %711)
  %713 = Conv[dilations = [1, 1], group = 1, kernel_shape = [1, 1], pads = [0, 0, 0, 0], strides = [1, 1]](%712, %200, %201)
  %714 = Relu(%713)
  %715 = Pad[mode = 'reflect', pads = [0, 0, 1, 1, 0, 0, 1, 1]](%714)
  %716 = Conv[dilations = [1, 1], group = 1, kernel_shape = [3, 3], pads = [0, 0, 0, 0], strides = [1, 1]](%715, %202, %203)
  %717 = Concat[axis = 1](%712, %716)
  %718 = Conv[dilations = [1, 1], group = 1, kernel_shape = [1, 1], pads = [0, 0, 0, 0], strides = [1, 1]](%717, %204)
  %719 = Constant[value = <Scalar Tensor []>]()
  %720 = Mul(%718, %719)
  %721 = Add(%720, %677)
  %722 = Conv[dilations = [1, 1], group = 1, kernel_shape = [1, 1], pads = [0, 0, 0, 0], strides = [1, 1]](%721, %205, %206)
  %723 = Relu(%722)
  %724 = Pad[mode = 'reflect', pads = [0, 0, 1, 1, 0, 0, 1, 1]](%723)
  %725 = Conv[dilations = [1, 1], group = 1, kernel_shape = [3, 3], pads = [0, 0, 0, 0], strides = [1, 1]](%724, %207, %208)
  %726 = Concat[axis = 1](%721, %725)
  %727 = Conv[dilations = [1, 1], group = 1, kernel_shape = [1, 1], pads = [0, 0, 0, 0], strides = [1, 1]](%726, %209, %210)
  %728 = Relu(%727)
  %729 = Pad[mode = 'reflect', pads = [0, 0, 1, 1, 0, 0, 1, 1]](%728)
  %730 = Conv[dilations = [1, 1], group = 1, kernel_shape = [3, 3], pads = [0, 0, 0, 0], strides = [1, 1]](%729, %211, %212)
  %731 = Concat[axis = 1](%726, %730)
  %732 = Conv[dilations = [1, 1], group = 1, kernel_shape = [1, 1], pads = [0, 0, 0, 0], strides = [1, 1]](%731, %213, %214)
  %733 = Relu(%732)
  %734 = Pad[mode = 'reflect', pads = [0, 0, 1, 1, 0, 0, 1, 1]](%733)
  %735 = Conv[dilations = [1, 1], group = 1, kernel_shape = [3, 3], pads = [0, 0, 0, 0], strides = [1, 1]](%734, %215, %216)
  %736 = Concat[axis = 1](%731, %735)
  %737 = Conv[dilations = [1, 1], group = 1, kernel_shape = [1, 1], pads = [0, 0, 0, 0], strides = [1, 1]](%736, %217, %218)
  %738 = Relu(%737)
  %739 = Pad[mode = 'reflect', pads = [0, 0, 1, 1, 0, 0, 1, 1]](%738)
  %740 = Conv[dilations = [1, 1], group = 1, kernel_shape = [3, 3], pads = [0, 0, 0, 0], strides = [1, 1]](%739, %219, %220)
  %741 = Concat[axis = 1](%736, %740)
  %742 = Conv[dilations = [1, 1], group = 1, kernel_shape = [1, 1], pads = [0, 0, 0, 0], strides = [1, 1]](%741, %221, %222)
  %743 = Relu(%742)
  %744 = Pad[mode = 'reflect', pads = [0, 0, 1, 1, 0, 0, 1, 1]](%743)
  %745 = Conv[dilations = [1, 1], group = 1, kernel_shape = [3, 3], pads = [0, 0, 0, 0], strides = [1, 1]](%744, %223, %224)
  %746 = Concat[axis = 1](%741, %745)
  %747 = Conv[dilations = [1, 1], group = 1, kernel_shape = [1, 1], pads = [0, 0, 0, 0], strides = [1, 1]](%746, %225, %226)
  %748 = Relu(%747)
  %749 = Pad[mode = 'reflect', pads = [0, 0, 1, 1, 0, 0, 1, 1]](%748)
  %750 = Conv[dilations = [1, 1], group = 1, kernel_shape = [3, 3], pads = [0, 0, 0, 0], strides = [1, 1]](%749, %227, %228)
  %751 = Concat[axis = 1](%746, %750)
  %752 = Conv[dilations = [1, 1], group = 1, kernel_shape = [1, 1], pads = [0, 0, 0, 0], strides = [1, 1]](%751, %229, %230)
  %753 = Relu(%752)
  %754 = Pad[mode = 'reflect', pads = [0, 0, 1, 1, 0, 0, 1, 1]](%753)
  %755 = Conv[dilations = [1, 1], group = 1, kernel_shape = [3, 3], pads = [0, 0, 0, 0], strides = [1, 1]](%754, %231, %232)
  %756 = Concat[axis = 1](%751, %755)
  %757 = Conv[dilations = [1, 1], group = 1, kernel_shape = [1, 1], pads = [0, 0, 0, 0], strides = [1, 1]](%756, %233, %234)
  %758 = Relu(%757)
  %759 = Pad[mode = 'reflect', pads = [0, 0, 1, 1, 0, 0, 1, 1]](%758)
  %760 = Conv[dilations = [1, 1], group = 1, kernel_shape = [3, 3], pads = [0, 0, 0, 0], strides = [1, 1]](%759, %235, %236)
  %761 = Concat[axis = 1](%756, %760)
  %762 = Conv[dilations = [1, 1], group = 1, kernel_shape = [1, 1], pads = [0, 0, 0, 0], strides = [1, 1]](%761, %237)
  %763 = Constant[value = <Scalar Tensor []>]()
  %764 = Mul(%762, %763)
  %765 = Add(%764, %721)
  %766 = Conv[dilations = [1, 1], group = 1, kernel_shape = [1, 1], pads = [0, 0, 0, 0], strides = [1, 1]](%765, %238, %239)
  %767 = Relu(%766)
  %768 = Pad[mode = 'reflect', pads = [0, 0, 1, 1, 0, 0, 1, 1]](%767)
  %769 = Conv[dilations = [1, 1], group = 1, kernel_shape = [3, 3], pads = [0, 0, 0, 0], strides = [1, 1]](%768, %240, %241)
  %770 = Concat[axis = 1](%765, %769)
  %771 = Conv[dilations = [1, 1], group = 1, kernel_shape = [1, 1], pads = [0, 0, 0, 0], strides = [1, 1]](%770, %242, %243)
  %772 = Relu(%771)
  %773 = Pad[mode = 'reflect', pads = [0, 0, 1, 1, 0, 0, 1, 1]](%772)
  %774 = Conv[dilations = [1, 1], group = 1, kernel_shape = [3, 3], pads = [0, 0, 0, 0], strides = [1, 1]](%773, %244, %245)
  %775 = Concat[axis = 1](%770, %774)
  %776 = Conv[dilations = [1, 1], group = 1, kernel_shape = [1, 1], pads = [0, 0, 0, 0], strides = [1, 1]](%775, %246, %247)
  %777 = Relu(%776)
  %778 = Pad[mode = 'reflect', pads = [0, 0, 1, 1, 0, 0, 1, 1]](%777)
  %779 = Conv[dilations = [1, 1], group = 1, kernel_shape = [3, 3], pads = [0, 0, 0, 0], strides = [1, 1]](%778, %248, %249)
  %780 = Concat[axis = 1](%775, %779)
  %781 = Conv[dilations = [1, 1], group = 1, kernel_shape = [1, 1], pads = [0, 0, 0, 0], strides = [1, 1]](%780, %250, %251)
  %782 = Relu(%781)
  %783 = Pad[mode = 'reflect', pads = [0, 0, 1, 1, 0, 0, 1, 1]](%782)
  %784 = Conv[dilations = [1, 1], group = 1, kernel_shape = [3, 3], pads = [0, 0, 0, 0], strides = [1, 1]](%783, %252, %253)
  %785 = Concat[axis = 1](%780, %784)
  %786 = Conv[dilations = [1, 1], group = 1, kernel_shape = [1, 1], pads = [0, 0, 0, 0], strides = [1, 1]](%785, %254, %255)
  %787 = Relu(%786)
  %788 = Pad[mode = 'reflect', pads = [0, 0, 1, 1, 0, 0, 1, 1]](%787)
  %789 = Conv[dilations = [1, 1], group = 1, kernel_shape = [3, 3], pads = [0, 0, 0, 0], strides = [1, 1]](%788, %256, %257)
  %790 = Concat[axis = 1](%785, %789)
  %791 = Conv[dilations = [1, 1], group = 1, kernel_shape = [1, 1], pads = [0, 0, 0, 0], strides = [1, 1]](%790, %258, %259)
  %792 = Relu(%791)
  %793 = Pad[mode = 'reflect', pads = [0, 0, 1, 1, 0, 0, 1, 1]](%792)
  %794 = Conv[dilations = [1, 1], group = 1, kernel_shape = [3, 3], pads = [0, 0, 0, 0], strides = [1, 1]](%793, %260, %261)
  %795 = Concat[axis = 1](%790, %794)
  %796 = Conv[dilations = [1, 1], group = 1, kernel_shape = [1, 1], pads = [0, 0, 0, 0], strides = [1, 1]](%795, %262, %263)
  %797 = Relu(%796)
  %798 = Pad[mode = 'reflect', pads = [0, 0, 1, 1, 0, 0, 1, 1]](%797)
  %799 = Conv[dilations = [1, 1], group = 1, kernel_shape = [3, 3], pads = [0, 0, 0, 0], strides = [1, 1]](%798, %264, %265)
  %800 = Concat[axis = 1](%795, %799)
  %801 = Conv[dilations = [1, 1], group = 1, kernel_shape = [1, 1], pads = [0, 0, 0, 0], strides = [1, 1]](%800, %266, %267)
  %802 = Relu(%801)
  %803 = Pad[mode = 'reflect', pads = [0, 0, 1, 1, 0, 0, 1, 1]](%802)
  %804 = Conv[dilations = [1, 1], group = 1, kernel_shape = [3, 3], pads = [0, 0, 0, 0], strides = [1, 1]](%803, %268, %269)
  %805 = Concat[axis = 1](%800, %804)
  %806 = Conv[dilations = [1, 1], group = 1, kernel_shape = [1, 1], pads = [0, 0, 0, 0], strides = [1, 1]](%805, %270)
  %807 = Constant[value = <Scalar Tensor []>]()
  %808 = Mul(%806, %807)
  %809 = Add(%808, %765)
  %810 = Conv[dilations = [1, 1], group = 1, kernel_shape = [1, 1], pads = [0, 0, 0, 0], strides = [1, 1]](%809, %271, %272)
  %811 = Relu(%810)
  %812 = Pad[mode = 'reflect', pads = [0, 0, 1, 1, 0, 0, 1, 1]](%811)
  %813 = Conv[dilations = [1, 1], group = 1, kernel_shape = [3, 3], pads = [0, 0, 0, 0], strides = [1, 1]](%812, %273, %274)
  %814 = Concat[axis = 1](%809, %813)
  %815 = Conv[dilations = [1, 1], group = 1, kernel_shape = [1, 1], pads = [0, 0, 0, 0], strides = [1, 1]](%814, %275, %276)
  %816 = Relu(%815)
  %817 = Pad[mode = 'reflect', pads = [0, 0, 1, 1, 0, 0, 1, 1]](%816)
  %818 = Conv[dilations = [1, 1], group = 1, kernel_shape = [3, 3], pads = [0, 0, 0, 0], strides = [1, 1]](%817, %277, %278)
  %819 = Concat[axis = 1](%814, %818)
  %820 = Conv[dilations = [1, 1], group = 1, kernel_shape = [1, 1], pads = [0, 0, 0, 0], strides = [1, 1]](%819, %279, %280)
  %821 = Relu(%820)
  %822 = Pad[mode = 'reflect', pads = [0, 0, 1, 1, 0, 0, 1, 1]](%821)
  %823 = Conv[dilations = [1, 1], group = 1, kernel_shape = [3, 3], pads = [0, 0, 0, 0], strides = [1, 1]](%822, %281, %282)
  %824 = Concat[axis = 1](%819, %823)
  %825 = Conv[dilations = [1, 1], group = 1, kernel_shape = [1, 1], pads = [0, 0, 0, 0], strides = [1, 1]](%824, %283, %284)
  %826 = Relu(%825)
  %827 = Pad[mode = 'reflect', pads = [0, 0, 1, 1, 0, 0, 1, 1]](%826)
  %828 = Conv[dilations = [1, 1], group = 1, kernel_shape = [3, 3], pads = [0, 0, 0, 0], strides = [1, 1]](%827, %285, %286)
  %829 = Concat[axis = 1](%824, %828)
  %830 = Conv[dilations = [1, 1], group = 1, kernel_shape = [1, 1], pads = [0, 0, 0, 0], strides = [1, 1]](%829, %287, %288)
  %831 = Relu(%830)
  %832 = Pad[mode = 'reflect', pads = [0, 0, 1, 1, 0, 0, 1, 1]](%831)
  %833 = Conv[dilations = [1, 1], group = 1, kernel_shape = [3, 3], pads = [0, 0, 0, 0], strides = [1, 1]](%832, %289, %290)
  %834 = Concat[axis = 1](%829, %833)
  %835 = Conv[dilations = [1, 1], group = 1, kernel_shape = [1, 1], pads = [0, 0, 0, 0], strides = [1, 1]](%834, %291, %292)
  %836 = Relu(%835)
  %837 = Pad[mode = 'reflect', pads = [0, 0, 1, 1, 0, 0, 1, 1]](%836)
  %838 = Conv[dilations = [1, 1], group = 1, kernel_shape = [3, 3], pads = [0, 0, 0, 0], strides = [1, 1]](%837, %293, %294)
  %839 = Concat[axis = 1](%834, %838)
  %840 = Conv[dilations = [1, 1], group = 1, kernel_shape = [1, 1], pads = [0, 0, 0, 0], strides = [1, 1]](%839, %295, %296)
  %841 = Relu(%840)
  %842 = Pad[mode = 'reflect', pads = [0, 0, 1, 1, 0, 0, 1, 1]](%841)
  %843 = Conv[dilations = [1, 1], group = 1, kernel_shape = [3, 3], pads = [0, 0, 0, 0], strides = [1, 1]](%842, %297, %298)
  %844 = Concat[axis = 1](%839, %843)
  %845 = Conv[dilations = [1, 1], group = 1, kernel_shape = [1, 1], pads = [0, 0, 0, 0], strides = [1, 1]](%844, %299, %300)
  %846 = Relu(%845)
  %847 = Pad[mode = 'reflect', pads = [0, 0, 1, 1, 0, 0, 1, 1]](%846)
  %848 = Conv[dilations = [1, 1], group = 1, kernel_shape = [3, 3], pads = [0, 0, 0, 0], strides = [1, 1]](%847, %301, %302)
  %849 = Concat[axis = 1](%844, %848)
  %850 = Conv[dilations = [1, 1], group = 1, kernel_shape = [1, 1], pads = [0, 0, 0, 0], strides = [1, 1]](%849, %303)
  %851 = Constant[value = <Scalar Tensor []>]()
  %852 = Mul(%850, %851)
  %853 = Add(%852, %809)
  %854 = Pad[mode = 'reflect', pads = [0, 0, 1, 1, 0, 0, 1, 1]](%853)
  %855 = Conv[dilations = [1, 1], group = 1, kernel_shape = [3, 3], pads = [0, 0, 0, 0], strides = [1, 1]](%854, %304, %305)
  %856 = Add(%855, %457)
  %857 = Pad[mode = 'reflect', pads = [0, 0, 1, 1, 0, 0, 1, 1]](%856)
  %858 = Conv[dilations = [1, 1], group = 1, kernel_shape = [3, 3], pads = [0, 0, 0, 0], strides = [1, 1]](%857, %306, %307)
  %859 = Constant[value = <Tensor>]()
  %860 = Reshape(%858, %859)
  %861 = Transpose[perm = [0, 1, 4, 2, 5, 3]](%860)
  %862 = Constant[value = <Tensor>]()
  %863 = Reshape(%861, %862)
  %864 = Relu(%863)
  %865 = Conv[dilations = [1, 1], group = 1, kernel_shape = [1, 1], pads = [0, 0, 0, 0], strides = [1, 1]](%864, %310)
  %866 = Conv[dilations = [1, 1], group = 1, kernel_shape = [1, 1], pads = [0, 0, 0, 0], strides = [1, 1]](%865, %311, %312)
  %867 = Relu(%866)
  %868 = Pad[mode = 'reflect', pads = [0, 0, 1, 1, 0, 0, 1, 1]](%867)
  %869 = Conv[dilations = [1, 1], group = 1, kernel_shape = [3, 3], pads = [0, 0, 0, 0], strides = [1, 1]](%868, %313, %314)
  %870 = Concat[axis = 1](%865, %869)
  %871 = Conv[dilations = [1, 1], group = 1, kernel_shape = [1, 1], pads = [0, 0, 0, 0], strides = [1, 1]](%870, %315, %316)
  %872 = Relu(%871)
  %873 = Pad[mode = 'reflect', pads = [0, 0, 1, 1, 0, 0, 1, 1]](%872)
  %874 = Conv[dilations = [1, 1], group = 1, kernel_shape = [3, 3], pads = [0, 0, 0, 0], strides = [1, 1]](%873, %317, %318)
  %875 = Concat[axis = 1](%870, %874)
  %876 = Conv[dilations = [1, 1], group = 1, kernel_shape = [1, 1], pads = [0, 0, 0, 0], strides = [1, 1]](%875, %319, %320)
  %877 = Relu(%876)
  %878 = Pad[mode = 'reflect', pads = [0, 0, 1, 1, 0, 0, 1, 1]](%877)
  %879 = Conv[dilations = [1, 1], group = 1, kernel_shape = [3, 3], pads = [0, 0, 0, 0], strides = [1, 1]](%878, %321, %322)
  %880 = Concat[axis = 1](%875, %879)
  %881 = Conv[dilations = [1, 1], group = 1, kernel_shape = [1, 1], pads = [0, 0, 0, 0], strides = [1, 1]](%880, %323, %324)
  %882 = Relu(%881)
  %883 = Pad[mode = 'reflect', pads = [0, 0, 1, 1, 0, 0, 1, 1]](%882)
  %884 = Conv[dilations = [1, 1], group = 1, kernel_shape = [3, 3], pads = [0, 0, 0, 0], strides = [1, 1]](%883, %325, %326)
  %885 = Concat[axis = 1](%880, %884)
  %886 = Conv[dilations = [1, 1], group = 1, kernel_shape = [1, 1], pads = [0, 0, 0, 0], strides = [1, 1]](%885, %327, %328)
  %887 = Relu(%886)
  %888 = Pad[mode = 'reflect', pads = [0, 0, 1, 1, 0, 0, 1, 1]](%887)
  %889 = Conv[dilations = [1, 1], group = 1, kernel_shape = [3, 3], pads = [0, 0, 0, 0], strides = [1, 1]](%888, %329, %330)
  %890 = Concat[axis = 1](%885, %889)
  %891 = Conv[dilations = [1, 1], group = 1, kernel_shape = [1, 1], pads = [0, 0, 0, 0], strides = [1, 1]](%890, %331, %332)
  %892 = Relu(%891)
  %893 = Pad[mode = 'reflect', pads = [0, 0, 1, 1, 0, 0, 1, 1]](%892)
  %894 = Conv[dilations = [1, 1], group = 1, kernel_shape = [3, 3], pads = [0, 0, 0, 0], strides = [1, 1]](%893, %333, %334)
  %895 = Concat[axis = 1](%890, %894)
  %896 = Conv[dilations = [1, 1], group = 1, kernel_shape = [1, 1], pads = [0, 0, 0, 0], strides = [1, 1]](%895, %335, %336)
  %897 = Relu(%896)
  %898 = Pad[mode = 'reflect', pads = [0, 0, 1, 1, 0, 0, 1, 1]](%897)
  %899 = Conv[dilations = [1, 1], group = 1, kernel_shape = [3, 3], pads = [0, 0, 0, 0], strides = [1, 1]](%898, %337, %338)
  %900 = Concat[axis = 1](%895, %899)
  %901 = Conv[dilations = [1, 1], group = 1, kernel_shape = [1, 1], pads = [0, 0, 0, 0], strides = [1, 1]](%900, %339, %340)
  %902 = Relu(%901)
  %903 = Pad[mode = 'reflect', pads = [0, 0, 1, 1, 0, 0, 1, 1]](%902)
  %904 = Conv[dilations = [1, 1], group = 1, kernel_shape = [3, 3], pads = [0, 0, 0, 0], strides = [1, 1]](%903, %341, %342)
  %905 = Concat[axis = 1](%900, %904)
  %906 = Conv[dilations = [1, 1], group = 1, kernel_shape = [1, 1], pads = [0, 0, 0, 0], strides = [1, 1]](%905, %343)
  %907 = Constant[value = <Scalar Tensor []>]()
  %908 = Mul(%906, %907)
  %909 = Add(%908, %865)
  %910 = Conv[dilations = [1, 1], group = 1, kernel_shape = [1, 1], pads = [0, 0, 0, 0], strides = [1, 1]](%909, %344, %345)
  %911 = Relu(%910)
  %912 = Pad[mode = 'reflect', pads = [0, 0, 1, 1, 0, 0, 1, 1]](%911)
  %913 = Conv[dilations = [1, 1], group = 1, kernel_shape = [3, 3], pads = [0, 0, 0, 0], strides = [1, 1]](%912, %346, %347)
  %914 = Concat[axis = 1](%909, %913)
  %915 = Conv[dilations = [1, 1], group = 1, kernel_shape = [1, 1], pads = [0, 0, 0, 0], strides = [1, 1]](%914, %348, %349)
  %916 = Relu(%915)
  %917 = Pad[mode = 'reflect', pads = [0, 0, 1, 1, 0, 0, 1, 1]](%916)
  %918 = Conv[dilations = [1, 1], group = 1, kernel_shape = [3, 3], pads = [0, 0, 0, 0], strides = [1, 1]](%917, %350, %351)
  %919 = Concat[axis = 1](%914, %918)
  %920 = Conv[dilations = [1, 1], group = 1, kernel_shape = [1, 1], pads = [0, 0, 0, 0], strides = [1, 1]](%919, %352, %353)
  %921 = Relu(%920)
  %922 = Pad[mode = 'reflect', pads = [0, 0, 1, 1, 0, 0, 1, 1]](%921)
  %923 = Conv[dilations = [1, 1], group = 1, kernel_shape = [3, 3], pads = [0, 0, 0, 0], strides = [1, 1]](%922, %354, %355)
  %924 = Concat[axis = 1](%919, %923)
  %925 = Conv[dilations = [1, 1], group = 1, kernel_shape = [1, 1], pads = [0, 0, 0, 0], strides = [1, 1]](%924, %356, %357)
  %926 = Relu(%925)
  %927 = Pad[mode = 'reflect', pads = [0, 0, 1, 1, 0, 0, 1, 1]](%926)
  %928 = Conv[dilations = [1, 1], group = 1, kernel_shape = [3, 3], pads = [0, 0, 0, 0], strides = [1, 1]](%927, %358, %359)
  %929 = Concat[axis = 1](%924, %928)
  %930 = Conv[dilations = [1, 1], group = 1, kernel_shape = [1, 1], pads = [0, 0, 0, 0], strides = [1, 1]](%929, %360, %361)
  %931 = Relu(%930)
  %932 = Pad[mode = 'reflect', pads = [0, 0, 1, 1, 0, 0, 1, 1]](%931)
  %933 = Conv[dilations = [1, 1], group = 1, kernel_shape = [3, 3], pads = [0, 0, 0, 0], strides = [1, 1]](%932, %362, %363)
  %934 = Concat[axis = 1](%929, %933)
  %935 = Conv[dilations = [1, 1], group = 1, kernel_shape = [1, 1], pads = [0, 0, 0, 0], strides = [1, 1]](%934, %364, %365)
  %936 = Relu(%935)
  %937 = Pad[mode = 'reflect', pads = [0, 0, 1, 1, 0, 0, 1, 1]](%936)
  %938 = Conv[dilations = [1, 1], group = 1, kernel_shape = [3, 3], pads = [0, 0, 0, 0], strides = [1, 1]](%937, %366, %367)
  %939 = Concat[axis = 1](%934, %938)
  %940 = Conv[dilations = [1, 1], group = 1, kernel_shape = [1, 1], pads = [0, 0, 0, 0], strides = [1, 1]](%939, %368, %369)
  %941 = Relu(%940)
  %942 = Pad[mode = 'reflect', pads = [0, 0, 1, 1, 0, 0, 1, 1]](%941)
  %943 = Conv[dilations = [1, 1], group = 1, kernel_shape = [3, 3], pads = [0, 0, 0, 0], strides = [1, 1]](%942, %370, %371)
  %944 = Concat[axis = 1](%939, %943)
  %945 = Conv[dilations = [1, 1], group = 1, kernel_shape = [1, 1], pads = [0, 0, 0, 0], strides = [1, 1]](%944, %372, %373)
  %946 = Relu(%945)
  %947 = Pad[mode = 'reflect', pads = [0, 0, 1, 1, 0, 0, 1, 1]](%946)
  %948 = Conv[dilations = [1, 1], group = 1, kernel_shape = [3, 3], pads = [0, 0, 0, 0], strides = [1, 1]](%947, %374, %375)
  %949 = Concat[axis = 1](%944, %948)
  %950 = Conv[dilations = [1, 1], group = 1, kernel_shape = [1, 1], pads = [0, 0, 0, 0], strides = [1, 1]](%949, %376)
  %951 = Constant[value = <Scalar Tensor []>]()
  %952 = Mul(%950, %951)
  %953 = Add(%952, %909)
  %954 = Conv[dilations = [1, 1], group = 1, kernel_shape = [1, 1], pads = [0, 0, 0, 0], strides = [1, 1]](%953, %377, %378)
  %955 = Relu(%954)
  %956 = Pad[mode = 'reflect', pads = [0, 0, 1, 1, 0, 0, 1, 1]](%955)
  %957 = Conv[dilations = [1, 1], group = 1, kernel_shape = [3, 3], pads = [0, 0, 0, 0], strides = [1, 1]](%956, %379, %380)
  %958 = Concat[axis = 1](%953, %957)
  %959 = Conv[dilations = [1, 1], group = 1, kernel_shape = [1, 1], pads = [0, 0, 0, 0], strides = [1, 1]](%958, %381, %382)
  %960 = Relu(%959)
  %961 = Pad[mode = 'reflect', pads = [0, 0, 1, 1, 0, 0, 1, 1]](%960)
  %962 = Conv[dilations = [1, 1], group = 1, kernel_shape = [3, 3], pads = [0, 0, 0, 0], strides = [1, 1]](%961, %383, %384)
  %963 = Concat[axis = 1](%958, %962)
  %964 = Conv[dilations = [1, 1], group = 1, kernel_shape = [1, 1], pads = [0, 0, 0, 0], strides = [1, 1]](%963, %385, %386)
  %965 = Relu(%964)
  %966 = Pad[mode = 'reflect', pads = [0, 0, 1, 1, 0, 0, 1, 1]](%965)
  %967 = Conv[dilations = [1, 1], group = 1, kernel_shape = [3, 3], pads = [0, 0, 0, 0], strides = [1, 1]](%966, %387, %388)
  %968 = Concat[axis = 1](%963, %967)
  %969 = Conv[dilations = [1, 1], group = 1, kernel_shape = [1, 1], pads = [0, 0, 0, 0], strides = [1, 1]](%968, %389, %390)
  %970 = Relu(%969)
  %971 = Pad[mode = 'reflect', pads = [0, 0, 1, 1, 0, 0, 1, 1]](%970)
  %972 = Conv[dilations = [1, 1], group = 1, kernel_shape = [3, 3], pads = [0, 0, 0, 0], strides = [1, 1]](%971, %391, %392)
  %973 = Concat[axis = 1](%968, %972)
  %974 = Conv[dilations = [1, 1], group = 1, kernel_shape = [1, 1], pads = [0, 0, 0, 0], strides = [1, 1]](%973, %393, %394)
  %975 = Relu(%974)
  %976 = Pad[mode = 'reflect', pads = [0, 0, 1, 1, 0, 0, 1, 1]](%975)
  %977 = Conv[dilations = [1, 1], group = 1, kernel_shape = [3, 3], pads = [0, 0, 0, 0], strides = [1, 1]](%976, %395, %396)
  %978 = Concat[axis = 1](%973, %977)
  %979 = Conv[dilations = [1, 1], group = 1, kernel_shape = [1, 1], pads = [0, 0, 0, 0], strides = [1, 1]](%978, %397, %398)
  %980 = Relu(%979)
  %981 = Pad[mode = 'reflect', pads = [0, 0, 1, 1, 0, 0, 1, 1]](%980)
  %982 = Conv[dilations = [1, 1], group = 1, kernel_shape = [3, 3], pads = [0, 0, 0, 0], strides = [1, 1]](%981, %399, %400)
  %983 = Concat[axis = 1](%978, %982)
  %984 = Conv[dilations = [1, 1], group = 1, kernel_shape = [1, 1], pads = [0, 0, 0, 0], strides = [1, 1]](%983, %401, %402)
  %985 = Relu(%984)
  %986 = Pad[mode = 'reflect', pads = [0, 0, 1, 1, 0, 0, 1, 1]](%985)
  %987 = Conv[dilations = [1, 1], group = 1, kernel_shape = [3, 3], pads = [0, 0, 0, 0], strides = [1, 1]](%986, %403, %404)
  %988 = Concat[axis = 1](%983, %987)
  %989 = Conv[dilations = [1, 1], group = 1, kernel_shape = [1, 1], pads = [0, 0, 0, 0], strides = [1, 1]](%988, %405, %406)
  %990 = Relu(%989)
  %991 = Pad[mode = 'reflect', pads = [0, 0, 1, 1, 0, 0, 1, 1]](%990)
  %992 = Conv[dilations = [1, 1], group = 1, kernel_shape = [3, 3], pads = [0, 0, 0, 0], strides = [1, 1]](%991, %407, %408)
  %993 = Concat[axis = 1](%988, %992)
  %994 = Conv[dilations = [1, 1], group = 1, kernel_shape = [1, 1], pads = [0, 0, 0, 0], strides = [1, 1]](%993, %409)
  %995 = Constant[value = <Scalar Tensor []>]()
  %996 = Mul(%994, %995)
  %997 = Add(%996, %953)
  %998 = Pad[mode = 'reflect', pads = [0, 0, 1, 1, 0, 0, 1, 1]](%997)
  %999 = Conv[dilations = [1, 1], group = 1, kernel_shape = [3, 3], pads = [0, 0, 0, 0], strides = [1, 1]](%998, %410, %411)
  %1000 = Add(%999, %864)
  %1001 = Pad[mode = 'reflect', pads = [0, 0, 1, 1, 0, 0, 1, 1]](%1000)
  %1002 = Conv[dilations = [1, 1], group = 1, kernel_shape = [3, 3], pads = [0, 0, 0, 0], strides = [1, 1]](%1001, %412, %413)
  %1003 = Constant[value = <Tensor>]()
  %1004 = Reshape(%1002, %1003)
  %1005 = Transpose[perm = [0, 1, 4, 2, 5, 3]](%1004)
  %1006 = Constant[value = <Tensor>]()
  %1007 = Reshape(%1005, %1006)
  %1008 = Relu(%1007)
  %1009 = Conv[dilations = [1, 1], group = 1, kernel_shape = [1, 1], pads = [0, 0, 0, 0], strides = [1, 1]](%1008, %416)
  %1010 = Conv[dilations = [1, 1], group = 1, kernel_shape = [1, 1], pads = [0, 0, 0, 0], strides = [1, 1]](%1009, %417, %418)
  %1011 = Relu(%1010)
  %1012 = Pad[mode = 'reflect', pads = [0, 0, 1, 1, 0, 0, 1, 1]](%1011)
  %1013 = Conv[dilations = [1, 1], group = 1, kernel_shape = [3, 3], pads = [0, 0, 0, 0], strides = [1, 1]](%1012, %419, %420)
  %1014 = Concat[axis = 1](%1009, %1013)
  %1015 = Conv[dilations = [1, 1], group = 1, kernel_shape = [1, 1], pads = [0, 0, 0, 0], strides = [1, 1]](%1014, %421, %422)
  %1016 = Relu(%1015)
  %1017 = Pad[mode = 'reflect', pads = [0, 0, 1, 1, 0, 0, 1, 1]](%1016)
  %1018 = Conv[dilations = [1, 1], group = 1, kernel_shape = [3, 3], pads = [0, 0, 0, 0], strides = [1, 1]](%1017, %423, %424)
  %1019 = Concat[axis = 1](%1014, %1018)
  %1020 = Conv[dilations = [1, 1], group = 1, kernel_shape = [1, 1], pads = [0, 0, 0, 0], strides = [1, 1]](%1019, %425, %426)
  %1021 = Relu(%1020)
  %1022 = Pad[mode = 'reflect', pads = [0, 0, 1, 1, 0, 0, 1, 1]](%1021)
  %1023 = Conv[dilations = [1, 1], group = 1, kernel_shape = [3, 3], pads = [0, 0, 0, 0], strides = [1, 1]](%1022, %427, %428)
  %1024 = Concat[axis = 1](%1019, %1023)
  %1025 = Conv[dilations = [1, 1], group = 1, kernel_shape = [1, 1], pads = [0, 0, 0, 0], strides = [1, 1]](%1024, %429, %430)
  %1026 = Relu(%1025)
  %1027 = Pad[mode = 'reflect', pads = [0, 0, 1, 1, 0, 0, 1, 1]](%1026)
  %1028 = Conv[dilations = [1, 1], group = 1, kernel_shape = [3, 3], pads = [0, 0, 0, 0], strides = [1, 1]](%1027, %431, %432)
  %1029 = Concat[axis = 1](%1024, %1028)
  %1030 = Conv[dilations = [1, 1], group = 1, kernel_shape = [1, 1], pads = [0, 0, 0, 0], strides = [1, 1]](%1029, %433, %434)
  %1031 = Relu(%1030)
  %1032 = Pad[mode = 'reflect', pads = [0, 0, 1, 1, 0, 0, 1, 1]](%1031)
  %1033 = Conv[dilations = [1, 1], group = 1, kernel_shape = [3, 3], pads = [0, 0, 0, 0], strides = [1, 1]](%1032, %435, %436)
  %1034 = Concat[axis = 1](%1029, %1033)
  %1035 = Conv[dilations = [1, 1], group = 1, kernel_shape = [1, 1], pads = [0, 0, 0, 0], strides = [1, 1]](%1034, %437, %438)
  %1036 = Relu(%1035)
  %1037 = Pad[mode = 'reflect', pads = [0, 0, 1, 1, 0, 0, 1, 1]](%1036)
  %1038 = Conv[dilations = [1, 1], group = 1, kernel_shape = [3, 3], pads = [0, 0, 0, 0], strides = [1, 1]](%1037, %439, %440)
  %1039 = Concat[axis = 1](%1034, %1038)
  %1040 = Conv[dilations = [1, 1], group = 1, kernel_shape = [1, 1], pads = [0, 0, 0, 0], strides = [1, 1]](%1039, %441, %442)
  %1041 = Relu(%1040)
  %1042 = Pad[mode = 'reflect', pads = [0, 0, 1, 1, 0, 0, 1, 1]](%1041)
  %1043 = Conv[dilations = [1, 1], group = 1, kernel_shape = [3, 3], pads = [0, 0, 0, 0], strides = [1, 1]](%1042, %443, %444)
  %1044 = Concat[axis = 1](%1039, %1043)
  %1045 = Conv[dilations = [1, 1], group = 1, kernel_shape = [1, 1], pads = [0, 0, 0, 0], strides = [1, 1]](%1044, %445, %446)
  %1046 = Relu(%1045)
  %1047 = Pad[mode = 'reflect', pads = [0, 0, 1, 1, 0, 0, 1, 1]](%1046)
  %1048 = Conv[dilations = [1, 1], group = 1, kernel_shape = [3, 3], pads = [0, 0, 0, 0], strides = [1, 1]](%1047, %447, %448)
  %1049 = Concat[axis = 1](%1044, %1048)
  %1050 = Conv[dilations = [1, 1], group = 1, kernel_shape = [1, 1], pads = [0, 0, 0, 0], strides = [1, 1]](%1049, %449)
  %1051 = Constant[value = <Scalar Tensor []>]()
  %1052 = Mul(%1050, %1051)
  %1053 = Add(%1052, %1009)
  %1054 = Pad[mode = 'reflect', pads = [0, 0, 1, 1, 0, 0, 1, 1]](%1053)
  %1055 = Conv[dilations = [1, 1], group = 1, kernel_shape = [3, 3], pads = [0, 0, 0, 0], strides = [1, 1]](%1054, %450, %451)
  %1056 = Add(%1055, %1008)
  %1057 = Pad[mode = 'reflect', pads = [0, 0, 1, 1, 0, 0, 1, 1]](%1056)
  %1058 = Conv[dilations = [1, 1], group = 1, kernel_shape = [3, 3], pads = [0, 0, 0, 0], strides = [1, 1]](%1057, %452, %453)
  %1059 = Constant[value = <Tensor>]()
  %1060 = Reshape(%1058, %1059)
  %1061 = Transpose[perm = [0, 1, 4, 2, 5, 3]](%1060)
  %1062 = Constant[value = <Tensor>]()
  %1063 = Reshape(%1061, %1062)
  %1064 = Relu(%1063)
  %1065 = Pad[mode = 'reflect', pads = [0, 0, 1, 1, 0, 0, 1, 1]](%1064)
  %1066 = Conv[dilations = [1, 1], group = 1, kernel_shape = [3, 3], pads = [0, 0, 0, 0], strides = [1, 1]](%1065, %454, %455)
  return %1066
}